LKHPyInterface/data/model_1.pt (torch_old, 507692 bytes, 47 tensors)

conv1.node_mlp_1.0.weight f4 [64, 6]
0.080159426 0.20261052 0.27827084 -0.35301283 0.016359366 0.19822204 -0.041444197 -0.039602805
0.091278054 -0.07132081 -0.3480782 0.20845324 -0.34601834 0.020122133 0.014112839 -0.058484714
-0.3690772 -0.17915015 0.11203373 -0.24298069 -0.21918878 -0.26603928 0.20456895 -0.2739897
0.14226829 0.25856516 0.343339 -0.26417097 -0.37357986 0.13309936 -0.18426728 -0.0705882
-0.077389434 0.31084445 -0.3629205 0.09298645 0.081200294 -0.24292955 0.07584562 -0.39805233
-0.2507492 0.34139523 -0.024242006 -0.3382599 0.19885816 0.11445123 0.3535814 0.28765386
0.32422012 0.2785722 -0.056515623 -0.18883257 -0.3226364 -0.17490917 -0.22332878 0.25288743
0.06481517 -0.2445827 -0.23347293 0.2354362 -0.31115463 -0.19536668 0.26643068 -0.33455715
0.20660953 0.35332882 -0.14538896 0.40524635 -0.09842537 -0.021172164 -0.056976654 0.3394225
0.35846487 -0.34377605 0.35687366 0.36855042 -0.23439515 0.03837449 -0.068539456 -0.16693424
0.026929596 0.17948805 0.40294558 0.059213288 -0.3700151 0.29999 -0.070370995 0.21949828
0.18078086 -0.083556555 0.40473384 0.36181527 0.10341223 0.24738728 -0.020615434 -0.13775569
0.12483706 -0.18479894 -0.14156252 0.37287897 -0.16057122 0.13463739 -0.20762843 0.2957715
0.035640612 -0.129655 -0.08646824 0.3889062 -0.16421632 0.15199322 -0.18518226 -0.35943583
0.2642598 0.10666784 0.007993352 0.2105869 -0.3748011 0.26847208 -0.10146654 0.2532136
-0.25677246 0.17894386 0.05454068 -0.34150776 -0.3017827 -0.3221999 -0.0053504156 -0.15251677
-0.25078568 -0.18596017 0.21870428 -0.34384102 -0.19473903 0.3820317 0.22055803 -0.011115782
0.38346145 0.37154743 0.2695703 0.35004097 -0.21537475 -0.31135184 0.2020047 0.07751414
0.021247493 0.18227784 0.38383615 -0.19857766 0.08792644 -0.36601964 0.37768212 0.031834174
-0.25370985 0.15389039 -0.1460761 0.2159214 -0.14648928 -0.3235378 -0.17448361 0.16038181
0.16003865 0.18088266 0.084134325 0.08449902 0.34164962 0.28398746 0.15176669 0.102733895
-0.003852865 0.15697898 0.15404378 0.05753998 0.2791524 -0.21329677 0.003336295 0.15573727
0.17248106 0.076720044 -0.07922769 0.21651337 0.33803752 0.2227324 -0.29755515 -0.18939666
-0.009127875 -0.09505831 -0.32610413 0.06799231 -0.080475666 -0.081191346 0.38598925 -0.2702266
0.3264583 0.080212 0.32547662 -0.3032693 -0.39155668 0.10800035 0.17203073 0.06882706
-0.14062567 0.19308169 -0.2688448 0.20693515 0.29270837 0.20154594 0.0086988425 -0.013429043
-0.05885864 0.15909119 0.35989606 0.23998903 0.0015911411 -0.13976352 -0.022340523 0.1258783
-0.40842992 -0.20387787 0.23527391 0.3153028 -0.1566042 -0.22917691 0.07086518 -0.29449004
-0.17289674 -0.0100927595 0.24563241 -0.015759423 0.37831014 -0.052129153 0.15804324 0.27198204
0.17035133 -0.31177047 -0.123252764 -0.26634917 -0.17880294 0.24127218 -0.36340845 -0.3286871
-0.31429353 -0.1773556 -0.3348649 -0.36739972 -0.32987046 0.23197901 0.11755445 -0.20195375
0.32731792 0.2802909 0.16099146 0.26689947 -0.012090021 -0.13931726 0.04121952 -0.04069782
00000000: a02a a43d 2279 4f3e 8479 8e3e 19be b4be
00000010: 1404 863c b8fa 4a3e 64c1 29bd 8d36 22bd
00000020: fdef ba3d a510 92bd 4e37 b2be c474 553e
00000030: 5129 b1be 2cd7 a43c 8939 673c ab8d 6fbd
00000040: b0f7 bcbe 2373 37be f171 e53d eecf 78be
00000050: 0673 60be 4d36 88be 867a 513e 6148 8cbe
00000060: c7ae 113e a762 843e 21ca af3e 6b41 87be
00000070: dc45 bfbe 334b 083e 90b0 3cbe 8c90 90bd
00000080: 5a7e 9ebd 0127 9f3e b7d0 b9be ae6f be3d
00000090: 574c a63d 86c2 78be f354 9b3d 84cd cbbe
000000a0: 3362 80be 5bcb ae3e 2c97 c6bc 6730 adbe
000000b0: 79a1 4b3e 6865 ea3d 9f08 b53e 5e47 933e
000000c0: 2e00 a63e 04a1 8e3e ed7c 67bd 535d 41be
000000d0: 9930 a5be 641b 33be 4db0 64be 767a 813e
000000e0: d1bd 843d e373 7abe 8713 6fbe 3016 713e
000000f0: a94f 9fbe 340e 48be 9a69 883e 134b abbe
00000100: 7391 533e 84e7 b43e d8e0 14be 737c cf3e
00000110: 3e93 c9bd 3f71 adbc 5a60 69bd c9c8 ad3e
00000120: b588 b73e 6a03 b0be 25b8 b63e a4b2 bc3e
00000130: 4805 70be 922e 1d3d 6a5e 8cbd cff0 2abe
00000140: 759b dc3c b7cb 373e e24e ce3e a289 723d
00000150: 9f72 bdbe 4a98 993e ab1e 90bd 28c4 603e
00000160: 9e1e 393e b31f abbd 4639 cf3e da3f b93e
00000170: cbc9 d33d 1753 7d3e b3e1 a8bc d40f 0dbe
00000180: 93aa ff3d ef3b 3dbe c4f5 10be fee9 be3e
00000190: c86c 24be 62de 093e 8c9c 54be 5d6f 973e
000001a0: e4fb 113d 48c4 04be 4316 b1bd b71e c73e
000001b0: 5328 28be 1ca4 1b3e 6ba0 3dbe f907 b8be
000001c0: 0f4d 873e ab74 da3d 8cf6 023c 18a4 573e
000001d0: eee5 bfbe 2c75 893e b0cd cfbd 37a5 813e
000001e0: ae77 83be 0f3d 373e 0c66 5f3d 1bda aebe
000001f0: 4383 9abe 63f7 a4be 8a52 afbb 5b2d 1cbe
00000200: fb66 80be 586c 3ebe 04f4 5f3e ee0b b0be
00000210: ab69 47be a999 c33e f7d9 613e f81e 36bc
00000220: 0f55 c43e 773b be3e 1e05 8a3e 9238 b33e
00000230: 338b 5cbe 8269 9fbe 52da 4e3e bcbf 9e3d
00000240: 390f ae3c 0ba7 3a3e 2c86 c43e f157 4bbe
00000250: c712 b43d ed66 bbbe 8d5f c13e 8d64 023d
00000260: 42e6 81be 7195 1d3e f994 15be 801a 5d3e
00000270: 4901 16be bfa6 a5be d5ab 32be 213b 243e
00000280: 2ce1 233e 4e39 393e 9e4e ac3d d20d ad3d
00000290: b3ec ae3e ce66 913e ba68 1b3e 2666 d23d
000002a0: 5980 7cbb 19bf 203e a7bd 1d3e 0baf 6b3d
000002b0: 10ed 8e3e 786a 5abe bea5 5a3b 9779 1f3e
000002c0: e09e 303e 661f 9d3d 2142 a2bd aeb5 5d3e
000002d0: 4113 ad3e f613 643e 2659 98be 33f1 41be
000002e0: 158d 15bc eead c2bd 1ff7 a6be 8d3f 8b3d
000002f0: 6dd0 a4bd a647 a6bd 62a0 c53e 245b 8abe
00000300: 8b25 a73e 3046 a43d dfa4 a63e 1d46 9bbe
00000310: 1e7a c8be 4a2f dd3d d328 303e 34f5 8c3d
00000320: 2d00 10be 35b7 453e 07a6 89be cfe6 533e
00000330: dfdd 953e 0f62 4e3e 9785 0e3c 7d05 5cbc
00000340: c215 71bd cde8 223e 4c44 b83e afbf 753e
00000350: d68d d03a 2b1e 0fbe 7903 b7bc 3ee6 003e
00000360: ba1d d1be 5cc5 50be a5eb 703e 5e6f a13e
00000370: da5c 20be 5aad 6abe c321 913d 66c7 96be
00000380: d80b 31be 1a5c 25bc 1087 7b3e e819 81bc
00000390: deb1 c13e 6185 55bd 16d6 213e 3b41 8b3e
000003a0: 9470 2e3e 61a0 9fbe f26b fcbd eb5e 88be
000003b0: 1e18 37be 0e10 773e ac10 babe ad49 a8be
000003c0: 15eb a0be b59c 35be 6a73 abbe d11b bcbe
000003d0: c8e4 a8be e88b 6d3e 63c0 f03d f7cc 4ebe
000003e0: 3796 a73e 4a82 8f3e f2da 243e 0ca7 883e
000003f0: 3915 46bc 2fa9 0ebe cdd5 283d c2b2 26bd

conv1.node_mlp_1.0.bias f4 [64]
0.07265198 0.06329921 0.17807136 0.17410612 0.01827027 0.34322128 -0.051444195 0.3970344
0.10770911 0.16333233 -0.32202157 0.18416555 0.3900844 -0.056341987 -0.17325689 0.14369974
-0.2577783 -0.18635412 -0.2606838 0.10050736 -0.00976904 -0.10979508 -0.20005953 0.27952492
0.27452517 0.34066963 0.034191675 -0.2373038 0.07178152 0.37675416 0.26458597 0.14923388
0.32634306 -0.074736215 0.21437871 -0.32336137 0.14554429 -0.012332334 -0.021391585 -0.19532475
0.060579285 -0.055290222 -0.09275316 -0.32808113 0.001979345 -0.145496 0.35571077 -0.27290973
-0.2741917 -0.1614167 -0.35853207 0.26234558 0.13123211 -0.32934663 -0.3775812 0.073428825
-0.3808585 0.194787 -0.34757546 0.34529614 0.39794382 -0.12625314 0.0892793 -0.37776175
00000000: 90ca 943d 04a3 813d 5758 363e e048 323e
00000010: 89ab 953c b3ba af3e 26b7 52bd 1848 cb3e
00000020: 9896 dc3d 9740 273e 03e0 a4be e595 3c3e
00000030: 24b9 c73e dbc6 66bd 416a 31be 0626 133e
00000040: 84fb 83be 9dd3 3ebe 5978 85be ced6 cd3d
00000050: 530e 20bc 3edc e0bd 68dc 4cbe e41d 8f3e
00000060: 908e 8c3e 406c ae3e 920c 0c3d c4ff 72be
00000070: 3102 933d ece5 c03e d077 873e c4d0 183e
00000080: 7016 a73e 4d0f 99bd 1886 5b3e 9f8f a5be
00000090: 9009 153e 8f0d 4abc 683d afbc 3603 48be
000000a0: fc21 783d 0078 62bd 5ef5 bdbd 40fa a7be
000000b0: e6b7 013b e7fc 14be b91f b63e d3ba 8bbe
000000c0: db62 8cbe 6b4a 25be 8491 b7be 2952 863e
000000d0: b661 063e 1fa0 a8be 5352 c1be da61 963d
000000e0: e3ff c2be 3e76 473e 69f5 b1be a8ca b03e
000000f0: 4bbf cb3e 8148 01be 11d8 b63d fd69 c1be

conv1.node_mlp_2.0.weight f4 [64, 128]
-0.034872618 0.043295424 -0.009137614 -0.027702847 -0.08026553 0.004384797 -0.03237496 0.07645586
-0.058245428 0.026230894 0.05948843 0.08330341 0.022180744 0.019764898 -0.021098463 -0.03234067
-0.062379356 -0.05374094 -0.086763635 -0.04885756 -0.05611525 -0.01959182 0.038511135 -0.065993465
0.0686507 0.06913954 0.008886905 -0.039090328 -0.005129098 -0.08365548 0.082207605 -0.060482822
-0.057721872 -0.04682417 -0.079913594 -0.037800826 0.08379988 -0.023590183 0.0849219 -0.004724904
0.0048395297 0.055438787 -0.07217534 0.06784784 -0.014115871 -0.0045582647 -0.0815406 -0.04603149
-0.058139827 0.06701925 0.08401014 -0.058274828 -0.024618717 0.08745866 -0.050080735 0.042738028
0.048267912 0.086116664 0.08298971 0.048892606 0.053407576 0.07083014 0.05524461 -0.0038135974
-0.062313925 -0.048700597 -0.031791884 -0.059954133 0.059112854 -0.011919729 -0.021581665 0.03350842
0.041180067 0.050790824 -0.028435297 0.051078074 0.01473847 0.03663791 -0.0034835339 0.010605149
-0.07302552 -0.016515873 -0.05262502 -0.025391825 -0.087424584 -0.005580403 -0.0041294247 -0.07994673
-0.034973655 -0.037125386 -0.06643587 -0.03765154 -0.0139522925 0.026051663 -0.08520503 -0.07819537
-0.028188571 0.0024715662 -0.031114448 -0.06399218 -0.028052744 -0.0025341213 -0.010047346 -0.036911733
-0.030654434 0.05767063 0.048096277 0.036696233 0.029726326 0.031861164 -0.034941822 -0.08499295
-0.077411175 -0.05086247 0.071869515 0.07490095 -0.050122876 -0.034034096 -0.036853477 -0.05738332
-0.074430816 -0.08185844 0.07546655 -0.034871563 0.017638318 0.08036948 -0.08214092 -0.049439747
-0.067344375 0.0020866077 -0.062854074 -0.014509452 0.07379714 -0.056630936 0.04931491 0.054914303
0.06763103 -0.0018852948 -0.015664415 0.07068959 0.031599663 0.072785325 0.0098428335 0.026881048
0.054894548 0.0458394 -0.05952584 0.0020564995 -0.039302554 0.030502934 0.08965306 0.036879834
0.043232176 -0.032886233 -0.008297481 0.041122522 -0.021043902 0.07031263 -0.030313404 -0.03195281
-0.025238197 0.081343286 -0.018808424 0.0399497 -0.08863766 -0.022332015 -0.05939999 -0.07856843
0.027933989 0.07219756 0.08108311 -0.0029941394 -0.053171225 0.014767003 -0.08089314 0.07645886
0.029480563 -0.04529091 0.018339636 -0.066037156 0.031014577 -0.0124855945 0.0137188975 -0.084723175
0.0005458527 -0.032125372 0.02850539 0.04853443 0.060349293 0.054561555 -0.034201752 -0.05160051
0.0004937053 0.07967088 -0.048486196 -0.046985473 -0.0022069067 0.03569267 -0.08417658 0.05735395
-0.07262836 0.05533237 0.015530832 0.08301111 0.036850385 0.034890518 0.036406524 0.08773307
0.043386243 -0.0763184 0.077850126 0.032229565 -0.04924447 0.07650491 -0.026574843 0.035609923
-0.083132036 -0.04243488 -0.039772294 0.021157146 0.04083901 0.02926045 0.0054377764 0.066133626
-0.021964185 -0.054564796 -0.06687002 0.067695014 0.03889174 -0.07518729 -0.08621065 0.08162641
-0.020899601 -0.0069311634 0.036987133 -0.021378316 -0.0063309968 -0.041434206 -0.031008933 -0.034901574
-0.07143669 0.017640524 0.06627097 -0.0060935467 -0.06874497 0.02618017 0.07757116 -0.073776186
0.032101505 -0.05271206 0.036793567 0.07707634 -0.028603613 0.086480506 0.028103516 -0.071665816
00000000: 97d6 0ebd 8b56 313d eeb5 15bc 15f1 e2bc
00000010: 4162 a4bd 58ae 8f3b 9b9b 04bd e494 9c3d
00000020: c292 6ebd 2ce2 d63c 24aa 733d fa9a aa3d
00000030: 64b4 b53c ffe9 a13c afd6 acbc a677 04bd
00000040: 7f81 7fbd 761f 5cbd 22b1 b1bd dd1e 48bd
00000050: 1bd9 65bd 067f a0bc dabd 1d3d 9527 87bd
00000060: bd98 8c3d 0899 8d3d 629a 113c 2e1d 20bd
00000070: fe11 a8bb 9053 abbd 765c a83d d6bc 77bd
00000080: c56d 6cbd b3ca 3fbd bda9 a3bd 0ad5 1abd
00000090: 469f ab3d 3340 c1bc 88eb ad3d 5ed3 9abb
000000a0: eb94 9e3b c813 633d aad0 93bd cff3 8a3d
000000b0: 4146 67bc 7f5d 95bb c2fe a6bd 848b 3cbd
000000c0: 0724 6ebd 6341 893d 820d ac3d 96b1 6ebd
000000d0: 31ad c9bc 871d b33d 7521 4dbd 120e 2f3d
000000e0: 93b4 453d ef5d b03d 82f6 a93d 9d43 483d
000000f0: e7c1 5a3d 640f 913d 2c48 623d 8ced 79bb
00000100: e33c 7fbd 477a 47bd 3538 02bd 7792 75bd
00000110: 5220 723d f84a 43bc 08cc b0bc 2040 093d
00000120: 6eac 283d 0a0a 503d 24f1 e8bc 3e37 513d
00000130: a079 713c a211 163d 004c 64bb 38c1 2d3c
00000140: 678e 95bd 4c4c 87bc 558d 57bd 8402 d0bc
00000150: a90b b3bd d0db b6bb 2050 87bb 1cbb a3bd
00000160: 8940 0fbd ca10 18bd 880f 88bd 8038 1abd
00000170: 2898 64bc 4c6a d53c fa7f aebd e524 a0bd
00000180: b8eb e6bc 00fa 213b bae3 febc 550e 83bd
00000190: dece e5bc 8013 26bb a09d 24bc c230 17bd
000001a0: 021f fbbc 0a38 6c3d 9a00 453d ca4e 163d
000001b0: a084 f33c da80 023d 281f 0fbd c910 aebd
000001c0: c089 9ebd 2a55 50bd 5330 933d ab65 993d
000001d0: a54d 4dbd 5667 0bbd acf3 16bd c60a 6bbd
000001e0: 2f6f 98bd 66a5 a7bd 358e 9a3d 7cd5 0ebd
000001f0: 3c7e 903c c198 a43d 8039 a8bd 5581 4abd
00000200: d9eb 89bd 78bf 083b a3b9 80bd 0db9 6dbc
00000210: f422 973d d7f5 67bd 6efe 493d d2ed 603d
00000220: 2382 8a3d ff1b f7ba a952 80bc b4c5 903d
00000230: a66e 013d 7910 953d d643 213c a535 dc3c
00000240: 1bd9 603d 18c2 3b3d 5ed1 73bd 56c6 063b
00000250: b7fb 20bd 4ae1 f93c 069c b73d 4f0f 173d
00000260: 3914 313d b7b3 06bd 28f2 07bc 1770 283d
00000270: 4364 acbc 1100 903d d153 f8bc f3e0 02bd
00000280: 56c0 cebc 4f97 a63d 2014 9abc 4ca2 233d
00000290: a987 b5bd a1f1 b6bc 674d 73bd 7ce8 a0bd
000002a0: d2d5 e43c 50dc 933d e70e a63d 5339 44bb
000002b0: 12ca 59bd 4df1 713c 4dab a5bd 7696 9c3d
000002c0: 3981 f13c f682 39bd 013d 963c 7d3e 87bd
000002d0: 4812 fe3c 6190 4cbc 3ac5 603c 5883 adbd
000002e0: 8e17 0f3a e595 03bd 2384 e93c 0acc 463d
000002f0: d230 773d f07b 5f3d 2317 0cbd 0e5b 53bd
00000300: 006c 013a 7d2a a33d 7699 46bd d773 40bd
00000310: c0a1 10bb 7a32 123d c564 acbd faeb 6a3d
00000320: 2dbe 94bd 32a4 623d 0875 7e3c bb01 aa3d
00000330: 6ef0 163d 5ce9 0e3d 021f 153d 65ad b33d
00000340: c6b5 313d d24c 9cbd e36f 9f3d 2603 043d
00000350: 92b4 49bd 9bae 9c3d 7cb3 d9bc b6db 113d
00000360: 2141 aabd 32d0 2dbd 46e8 22bd c051 ad3c
00000370: ce46 273d 9cb3 ef3c 602f b23b 1171 873d
00000380: 3cee b3bc 567f 5fbd 26f3 88bd afa3 8a3d
00000390: f24c 1f3d cbfb 99bd 368f b0bd bf2b a73d
000003a0: a435 abbc d01e e3bb d27f 173d 9421 afbc
000003b0: 4074 cfbb eab6 29bd 7206 febc f4f4 0ebd
000003c0: 664d 92bd dc82 903c 13b9 873d 60ac c7bb
000003d0: 2aca 8cbd cc77 d63c a1dd 9e3d f817 97bd
000003e0: de7c 033d 9ae8 57bd dab4 163d 33da 9d3d
000003f0: 2052 eabc b11c b13d 5839 e63c 87c5 92bd

conv1.node_mlp_2.0.bias f4 [64]
0.009364108 -0.056427393 0.01848549 0.023199536 0.023175845 -0.040134154 0.015957145 0.0863638
-0.09157853 -0.0052486653 -0.08192761 -0.04043612 -0.00014230688 0.053244747 0.0023887483 0.04072882
-0.050222956 0.018432489 -0.078866236 0.059634026 -0.029618315 -0.0007448361 -0.064387426 -0.017137758
0.062526226 -0.016260445 -0.039001968 -0.024660673 -0.04233384 0.04396482 0.046444412 -0.00070283224
-0.003654219 -0.05681147 -0.031727724 0.057804853 -0.008280203 0.03008147 0.036091756 -0.045715347
0.015741197 0.010726003 -0.069459304 -0.070523456 0.025272638 0.02271857 -0.037175093 -0.05534268
-0.046736915 -0.06832372 -0.0063026603 -0.01951588 0.06266152 -0.065160036 0.058682203 0.028198827
0.0837531 -0.039830618 -0.039405234 -0.049627915 -0.038071945 0.013873311 0.0070570344 -0.0040696515
00000000: ea6b 193c 6920 67bd e26e 973c f40c be3c
00000010: 45db bd3c b663 24bd 8fb8 823c 81df b03d
00000020: 868d bbbd fffc abbb aac9 a7bd 58a0 25bd
00000030: 3638 15b9 2a17 5a3d 8c8c 1c3b 43d3 263d
00000040: 96b6 4dbd bbff 963c 9f84 a1bd cf42 743d
00000050: 1ca2 f2bc 1b41 43ba 8edd 83bd 7c64 8cbc
00000060: c00d 803d a034 85bc 87c0 1fbd 2e05 cabc
00000070: 4066 2dbd 7514 343d 7f3c 3e3d 463e 38ba
00000080: 9f7b 6fbb 25b3 68bd eef4 01bd c8c4 6c3d
00000090: b0a9 07bc 6a6d f63c f3d4 133d 0440 3bbd
000000a0: aff3 803c 1ebc 2f3c ae40 8ebd 9a6e 90bd
000000b0: 9008 cf3c 4b1c ba3c e944 18bd 02af 62bd
000000c0: 356f 3fbd 4eed 8bbd 8c86 cebb c4df 9fbc
000000d0: af54 803d a072 85bd c05c 703d 3a01 e73c
000000e0: bf86 ab3d 6e25 23bd 6267 21bd a446 4bbd
000000f0: 54f1 1bbd e24c 633c b23e e73b b65a 85bb

conv1.global_mlp.0.weight f4 [64, 128]
-0.028898396 0.034310833 0.050350703 0.068047754 0.03554207 -0.08171027 0.07584504 -0.0005587861
-0.07505484 -0.03724088 0.032914013 -0.08646018 0.024874933 -0.036251377 -0.0716227 -0.0018498227
0.015574388 -0.08807411 0.024956748 0.009578563 0.02355665 0.031101972 -0.06413168 -0.026335932
-0.027905047 -0.025437437 0.059058852 0.0029298067 0.009021245 -0.07835232 0.052997805 0.003950469
-0.017145589 0.042722113 0.08599556 0.08487343 0.0017297715 -0.025379904 0.036105648 -0.021133356
-0.016482577 -0.01835668 0.037967287 -0.04995495 -0.046838846 -0.07110639 -0.062450446 0.08161176
-0.013465047 0.00327681 -0.023236811 0.042005695 -0.024013132 -0.07345149 -0.019322403 0.08544829
0.052204736 -0.058282863 -0.08539314 0.032140315 -0.086253226 -0.079424016 -0.012431212 0.048200794
-0.014384124 0.08155652 0.046018787 0.082698226 -0.03403143 0.036834788 -0.016261986 -0.012616784
-0.059391893 -0.04676285 -0.082229085 0.030718837 -0.012118731 -0.024206057 0.021424865 -0.021134581
0.055252753 -0.035196565 -0.052484017 -0.091920406 -0.006084746 -0.02085079 0.05076449 -0.06819513
0.057761166 0.015029809 0.06605555 0.041253828 0.09949737 0.0122651225 0.03137592 0.011849145
-0.0029130254 -0.04738202 -0.03268909 -0.0060841623 -0.0035399257 0.021771777 -0.041425496 0.09396559
0.07541627 0.061638582 0.08399727 0.08659577 -0.03678803 -0.06743114 0.07020145 0.034780964
-0.031216843 0.06131421 -0.029098012 -0.01065009 -0.07626335 -0.07440757 -0.064822264 0.026978174
0.051391877 -0.04319317 -0.041970115 -0.04282909 -0.031683918 0.051627193 -0.0452194 -0.055418946
-0.009352952 -0.072040804 0.06663806 -0.081408806 0.07990643 0.018557608 -0.04866405 0.054803602
-0.031101435 -0.056559753 -0.03661521 -0.00920362 -0.0030414462 -0.007499136 0.07665605 0.0024613142
0.028619364 -0.082200855 0.03766673 -0.0076155216 0.008083925 0.079456575 -0.052948043 -0.024263375
0.053701513 -0.029971361 -0.08674137 -0.033806346 -0.07328581 -0.0052587166 0.08255581 -0.063755654
-0.081565864 0.028265186 0.05257187 -0.0024946854 -0.025202952 -0.04505891 0.0035727173 0.077849545
0.073520325 0.01110287 -0.059400197 0.048545577 -0.039822683 -0.051613335 -0.059413873 0.06717945
-0.03025188 0.079417236 0.015077844 0.06945009 -0.01725354 0.07297208 -0.061181366 0.03907772
-0.07353742 0.06728507 -0.05309364 -0.000550814 0.051089413 -0.027299978 0.014950119 -0.065911114
-0.029215455 0.06587121 0.070928514 -0.027922569 -0.042733558 0.009999298 0.008633431 -0.07962667
0.011886991 -0.020135704 -0.028092612 -0.049594432 0.002652141 0.0620608 -0.01879044 0.076865576
0.077611886 -0.05733841 -0.032212745 -0.037194125 -0.04527407 0.012088969 0.048939697 0.010546421
0.026705706 0.02091176 -0.03961801 -0.08018093 0.0929473 -0.05626652 0.0018220909 -0.039092105
0.033356156 0.06513088 0.0010710512 -0.08751615 -0.07178107 0.008697514 0.031169822 0.017230142
0.0871109 0.042187102 -0.014497314 0.016214438 -0.07764412 -0.07730782 -0.06328554 -0.04287977
-0.034522202 -0.050718732 0.055733755 0.011598709 -0.09000906 0.043493487 0.020524532 0.052900556
-0.06057545 0.041293025 0.040101185 0.024189102 -0.06773742 0.0010050759 0.0029595771 -0.017035643
00000000: 54bc ecbc 8489 0c3d 8a3c 4e3d 9f5c 8b3d
00000010: 9094 113d b757 a7bd a554 9b3d 807b 12ba
00000020: 5ab6 99bd e589 18bd d8d0 063d 0912 b1bd
00000030: 84c6 cb3c 537c 14bd ecae 92bd c075 f2ba
00000040: b82b 7f3c 3360 b4bd 1872 cc3c 68ef 1c3c
00000050: e0f9 c03c 90c9 fe3c 7857 83bd 74be d7bc
00000060: 2099 e4bc 2c62 d0bc b2e7 713d 0002 403b
00000070: d8cd 133c 2e77 a0bd 3a14 593d f072 813b
00000080: e874 8cbc 62fd 2e3d 711e b03d 1fd2 ad3d
00000090: 80b9 e23a 84e9 cfbc 84e3 133d dc1f adbc
000000a0: 7806 87bc c060 96bc 9683 1b3d 909d 4cbd
000000b0: 17da 3fbd 3aa0 91bd 0acc 7fbd 1124 a73d
000000c0: 809c 5cbc c0bf 563b 205b bebc 2a0e 2c3d
000000d0: 30b7 c4bc bc6d 96bd 044a 9ebc 83ff ae3d
000000e0: a2d4 553d 03ba 6ebd 99e2 aebd 90a5 033d
000000f0: 88a5 b0bd 0fa9 a2bd 48ac 4bbc 326e 453d
00000100: 64ab 6bbc 1b07 a73d 327e 3c3d b05d a93d
00000110: 8a64 0bbd 13e0 163d db37 85bc a1b6 4ebc
00000120: ea44 73bd 678a 3fbd b967 a8bd 12a6 fb3c
00000130: a48d 46bc c84b c6bc 3383 af3c 6e22 adbc
00000140: b650 623d 462a 10bd 7bf9 56bd c440 bcbd
00000150: 8d62 c7bb 47cf aabc 6dee 4f3d e3a9 8bbd
00000160: f996 6c3d 973f 763c 2248 873d c6f9 283d
00000170: 47c5 cb3d a7f3 483c 0984 003d eb22 423c
00000180: 75e8 3ebb a613 42bd ffe4 05bd a75d c7bb
00000190: 19fe 67bb ba5a b23c c8ad 29bd 0871 c03d
000001a0: d873 9a3d bd78 7c3d c306 ac3d 2059 b13d
000001b0: 0caf 16bd 5619 8abd c7c5 8f3d 7c76 0e3d
000001c0: 77ba ffbc 9c24 7b3d f45e eebc b77d 2ebc
000001d0: f62f 9cbd ff62 98bd 89c1 84bd 5501 dd3c
000001e0: 4a80 523d 52eb 30bd dbe8 2bbd 8e6d 2fbd
000001f0: ffc6 01bd 0977 533d fa37 39bd fafe 62bd
00000200: 203d 19bc 218a 93bd 8979 883d a9b9 a6bd
00000210: fba5 a33d 2006 983c f453 47bd be79 603d
00000220: 70c8 febc 33ab 67bd d5f9 15bd c8ca 16bc
00000230: 0053 47bb 50bb f5bb d9fd 9c3d 004e 213b
00000240: 2873 ea3c ec58 a8bd 6e48 1a3d a08b f9bb
00000250: 7072 043c 21ba a23d 0ce0 58bd fcc3 c6bc
00000260: 1ef6 5b3d 8086 f5bc 76a5 b1bd 8678 0abd
00000270: df16 96bd 5051 acbb 0513 a93d 5392 82bd
00000280: 010c a7bd 648c e73c 9a55 573d e07d 23bb
00000290: 6c76 cebc b18f 38bd 4024 6a3b 956f 9f3d
000002a0: d391 963d d0e8 353c 9f4d 73bd bad7 463d
000002b0: 1c1d 23bd 8168 53bd f65b 73bd 6195 893d
000002c0: cad2 f7bc 81a5 a23d 1009 773c d93b 8e3d
000002d0: 4c57 8dbc 6372 953d 5099 7abd f60f 203d
000002e0: c99a 96bd c1cc 893d b778 59bd 8064 10ba
000002f0: 2243 513d 34a4 dfbc 58f1 743c 68fc 86bd
00000300: 4055 efbc 7ce7 863d f842 913d dfbd e4bc
00000310: 6209 2fbd 18d4 233c 3c73 0d3c 4f13 a3bd
00000320: a7c1 423c a2f3 a4bc 7a22 e6bc 8823 4bbd
00000330: 8bcf 2d3b 7733 7e3d 69ee 99bc b36b 9d3d
00000340: fbf2 9e3d aedb 6abd 83f1 03bd de58 18bd
00000350: 4e71 39bd d010 463c fe74 483d e5ca 2c3c
00000360: edc5 da3c 244f ab3c 7f46 22bd e635 a4bd
00000370: 275b be3d b977 66bd 3ad3 ee3a 0b1f 20bd
00000380: 77a0 083d 5763 853d 8462 8c3a ab3b b3bd
00000390: f401 93bd 0580 0e3c db57 ff3c 3a26 8d3c
000003a0: 3367 b23d 62cc 2c3d 2486 6dbc 24d4 843c
000003b0: e103 9fbd 9053 9ebd d99b 81bd b3a2 2fbd
000003c0: 2767 0dbd 72be 4fbd 1449 643d 8308 3e3c
000003d0: ac56 b8bd 3a26 323d 1023 a83c 41ae 583d
000003e0: f71d 78bd e022 293d 2441 243d 3928 c63c
000003f0: ebb9 8abd c0bc 833a 77f5 413b 558e 8bbc

conv1.global_mlp.0.bias f4 [64]
0.07077894 0.021579204 -0.039289948 -0.061942738 -0.062069748 0.070737064 0.03693666 -0.06141508
0.0018272473 -0.014813173 -0.056087732 -0.024876472 0.001984874 -0.022037731 0.058876958 0.019660428
0.011430496 -0.039567273 -0.076726 -0.0018366489 0.029990098 -0.029082755 -0.009586626 -0.06043361
-0.036649264 0.026799748 0.010074341 -0.039132114 0.053616174 -0.05351262 -0.0771363 0.028476594
-0.01278075 -0.011021349 -0.040816702 0.045911647 -0.047477234 -0.020484354 -0.087471694 -0.07314539
-0.029489487 0.039779734 -0.027390698 0.04630863 -0.050776087 -0.035028104 0.012545798 0.017522976
0.014196845 -0.021689435 -0.020949721 -0.004765252 -0.0699749 -0.009941616 -0.017678913 -0.06599157
0.017651137 -0.03830876 0.0694533 -0.052405104 0.0025409188 0.078111604 0.063897684 -0.034776006
00000000: 8df4 903d dfc6 b03c 7fee 20bd abb7 7dbd
00000010: d93c 7ebd 98de 903d e54a 173d 618e 7bbd
00000020: 3f80 ef3a f3b2 72bc 40bc 65bd bec9 cbbc
00000030: a914 023b 7988 b4bc f728 713d e80e a13c
00000040: fa46 3b3c 4b11 22bd 8522 9dbd b6bb f0ba
00000050: cbad f53c f53e eebc 3911 1dbc 3c89 77bd
00000060: 8a1d 16bd 258b db3c d90e 253c ff48 20bd
00000070: a29c 5b3d 0d30 5bbd a3f9 9dbd bf47 e93c
00000080: 5a66 51bc e392 34bc 6a2f 27bd da0d 3c3d
00000090: 7d77 42bd cece a7bc 5c24 b3bd 40cd 95bd
000000a0: f093 f1bc 13f0 223d 7562 e0bc 1eae 3d3d
000000b0: 96fa 4fbd a179 0fbd e48c 4d3c 588c 8f3c
000000c0: e299 683c 0bae b1bc c09e abbc d525 9cbb
000000d0: 004f 8fbd 29e2 22bc 5ed3 90bc 9726 87bd
000000e0: 1e99 903c a5e9 1cbd 883d 8e3d bca6 56bd
000000f0: 8b85 263b faf8 9f3d cadc 823d 4971 0ebd

convs.0.node_mlp_1.0.weight f4 [64, 68]
-0.072164565 0.06874684 0.040926185 0.09906222 -0.10017473 -0.0093231285 0.10624587 0.028421283
0.060491435 0.10681218 0.11768579 0.025003485 0.024695091 0.0074783107 0.006987289 0.03229492
0.027087254 -0.02083797 -0.051520873 0.11287857 -0.09115542 0.11946171 0.11074989 0.11890939
-0.07341642 0.05786327 0.04296517 -0.080352105 0.1165273 -0.008441972 0.092554316 -0.095384456
0.03304339 0.042423103 0.07809708 -0.045768436 0.050351128 -0.07032918 -0.09103024 0.035921704
0.10148363 -0.029363219 -0.071952745 -0.022515314 -0.048919126 0.024303108 -0.08328055 -0.06431844
0.10614354 0.12124261 -0.012349327 -0.040975615 0.054391034 0.12098118 -0.0017571497 0.05922214
-0.013182553 -0.026883317 -0.026784517 -0.0364762 0.0056718234 0.0860578 0.014950285 -0.043080576
0.061493494 0.097490616 0.10259085 -0.015287115 -0.049096223 0.121128075 -0.09687782 -0.05035344
0.09775802 -0.06627423 -0.0053913253 -0.04500621 -0.11925407 -0.088506155 -0.09913546 0.017805142
-0.0026604196 0.08621086 0.0143070165 0.12487764 0.029344052 -0.02564067 0.09103488 0.11930623
0.11371213 -0.104399204 0.07902726 -0.056436643 0.08768982 0.028788894 0.0013745499 0.04774261
-0.030912533 -0.04413702 -0.05813475 0.046948634 -0.06249056 -0.020442214 0.11091189 -0.022622243
0.05397969 0.043596927 0.11439081 -0.00038877083 -0.018841624 -0.09340963 -0.068173654 0.016820954
-0.05195019 -0.0030151217 -0.030023906 0.09580922 0.092815645 0.02222526 0.07745511 0.019086445
-0.106301755 -0.0010641618 -0.08434738 0.09792244 0.059150126 -0.072025135 0.0071563246 0.034584783
0.061567947 -0.0053797048 0.063983366 -0.09842506 0.045724478 0.027221136 -0.07033422 -0.035349004
0.0026007462 -0.096397065 0.036514122 -0.0880177 0.10772534 -0.066717386 -0.06671334 -0.015175424
-0.0071338955 -0.06890017 0.1070824 -0.01858425 -0.10380548 0.08000574 -0.05840366 0.092169374
-0.013468696 -0.03560085 0.072686344 -0.084128015 -0.07818996 -0.08450754 -0.10087899 -0.09259464
0.09480312 0.10016998 -0.0176294 0.09969635 -0.10507851 0.090863734 0.012619901 0.012741769
0.03810282 -0.10806318 0.062417135 0.09731004 0.040369336 0.039744936 -0.0021804573 -0.13420172
-0.048166998 -0.044237506 -0.09527644 -0.018484892 0.024090819 -0.11940241 -0.07623476 -0.086982556
0.036132265 -0.05955365 -0.014210488 -0.036762368 -0.103258885 0.087332964 -0.073774375 0.033170495
-0.053753775 -0.05632553 0.08857892 -0.04019746 -0.06806116 -0.10968391 -0.1094558 0.09714098
-0.08900729 0.09560372 0.11099258 0.08241264 -0.11198667 -0.04652184 0.0037016347 0.031961627
0.041182443 -0.05238956 0.060826592 0.123303995 0.03585732 0.08496167 -0.029562231 -0.022801654
0.037427507 0.108481966 -0.05314964 -0.0148562165 0.02721231 0.1095731 -0.071099944 -0.11998947
-0.09069943 0.09200643 0.06719241 -0.10071984 0.022936475 0.10925005 -0.018500187 0.07914812
0.06644645 0.016264545 0.11291701 -0.043273453 0.057452295 -0.090968944 -0.06132472 -0.06495548
0.09904898 0.09654869 -0.017453337 -0.078694515 -0.065252565 0.06706954 0.059705436 -0.10609457
0.042495403 -0.116504885 0.07785871 0.010264771 0.117981054 0.028749289 -0.039249267 0.06956869
00000000: 04cb 93bd 25cb 8c3d 37a2 273d 22e1 ca3d
00000010: 6928 cdbd 09c0 18bc 6f97 d93d c0d3 e83c
00000020: dec5 773d 58c0 da3d 3f05 f13d 1cd4 cc3c
00000030: 5c4d ca3c 9e0c f53b a1f5 e43b ae47 043d
00000040: 17e6 dd3c 64b4 aabc 8d07 53bd e12c e73d
00000050: b1af babd 57a8 f43d d7d0 e23d c486 f33d
00000060: 595b 96bd 0902 6d3d 3ffc 2f3d a58f a4bd
00000070: dda5 ee3d 3250 0abc 1e8d bd3d ed58 c3bd
00000080: 8158 073d d9c3 2d3d 5df1 9f3d af77 3bbd
00000090: fc3c 4e3d bf08 90bd 106e babd a322 133d
000000a0: a6d6 cf3d 228b f0bc f65b 93bd 0972 b8bc
000000b0: 6c5f 48bd 5017 c73c fe8e aabd 63b9 83bd
000000c0: c961 d93d 0c4e f83d d554 4abc 0cd6 27bd
000000d0: 22c9 5e3d fbc4 f73d 2950 e6ba ea92 723d
000000e0: a3fb 57bc 673a dcbc 346b dbbc 1168 15bd
000000f0: b4da b93b 123f b03d 0af2 743c 4275 30bd
00000100: 9ae0 7b3d 29a9 c73d 271b d23d cf76 7abc
00000110: 1f19 49bd ff11 f83d e167 c6bd 693f 4ebd
00000120: 5b35 c83d c9ba 87bd b7a9 b0bb 6f58 38bd
00000130: 7a3b f4bd b742 b5bd 8807 cbbd 17dc 913c
00000140: 6f5a 2ebb 528f b03d fa67 6a3c d9bf ff3d
00000150: f062 f03c 620c d2bc 7f70 ba3d d356 f43d
00000160: e8e1 e83d 40cf d5bd 0bd9 a13d 1c2a 67bd
00000170: b896 b33d b0d6 eb3c 3e2a b43a c18d 433d
00000180: 483c fdbc 05c9 34bd b41e 6ebd 364d 403d
00000190: 1af6 7fbd 6e76 a7bc c625 e33d 4852 b9bc
000001a0: cf19 5d3d b192 323d bb45 ea3d f0d3 cbb9
000001b0: c059 9abc 8c4d bfbd a19e 8bbd 19cc 893c
000001c0: b9c9 54bd 5999 45bb b2f4 f5bc a037 c43d
000001d0: 2116 be3d c011 b63c c9a0 9e3d 2d5b 9c3c
000001e0: bcb4 d9bd 587b 8bba 52be acbd 8f8b c83d
000001f0: 6747 723d ea81 93bd 9a7f ea3b c6a8 0d3d
00000200: ac2e 7c3d 3c48 b0bb b609 833d 1493 c9bd
00000210: 9749 3b3d dcfe de3c 630b 90bd 1eca 10bd
00000220: 4871 2a3b d36b c5bd d58f 153d a042 b4bd
00000230: 1a9f dc3d 20a3 88bd 01a1 88bd 57a2 78bc
00000240: 74c3 e9bb 881b 8dbd 044e db3d ff3d 98bc
00000250: f897 d4bd 0dda a33d ad38 6fbd 4cc3 bc3d
00000260: ceab 5cbc 32d2 11bd 94dc 943d 4f4b acbd
00000270: 0f22 a0bd 4a12 adbd a599 cebd 42a2 bdbd
00000280: 2328 c23d eb25 cd3d 886b 90bc 9a2d cc3d
00000290: 6733 d7bd c416 ba3d b4c3 4e3c dac2 503c
000002a0: b411 1c3d 3b50 ddbd 1ca9 7f3d 7c4a c73d
000002b0: 515a 253d 96cb 223d 01e6 0ebb 2d6c 09be
000002c0: c24a 45bd 6332 35bd 4b20 c3bd a16d 97bc
000002d0: 1c5a c53c 4089 f4bd f820 9cbd e923 b2bd
000002e0: 6dff 133d 87ee 73bd 1bd3 68bc 2394 16bd
000002f0: 6579 d3bd a0db b23d 0517 97bd c9dd 073d
00000300: eb2c 5cbd 99b5 66bd dd68 b53d 18a6 24bd
00000310: a663 8bbd f5a1 e0bd 5d2a e0bd daf1 c63d
00000320: 7449 b6bd e2cb c33d 1450 e33d f5c7 a83d
00000330: 4459 e5bd af8d 3ebd 2097 723b 32ea 023d
00000340: ecae 283d 6f96 56bd 4e25 793d ce86 fc3d
00000350: 20df 123d 6200 ae3d 7e2c f2bc 89ca babc
00000360: 964d 193d cb2b de3d 70b3 59bd 7d67 73bc
00000370: 5aec de3c dd67 e03d d99c 91bd 0abd f5bd
00000380: 9fc0 b9bd de6d bc3d 2d9c 893d 3446 cebd
00000390: 46e5 bb3c 7dbe df3d b48d 97bc 6918 a23d
000003a0: 1415 883d 393d 853c 0941 e73d 813f 31bd
000003b0: 1953 6b3d ed4d babd a12f 7bbd 6107 85bd
000003c0: 31da ca3d 52bb c53d 4dfa 8ebc 972a a1bd
000003d0: 23a3 85bd c15b 893d b08d 743d 1c48 d9bd
000003e0: a90f 2e3d 1d9a eebd 6374 9f3d 922d 283c
000003f0: 0da0 f13d a183 eb3c d7c3 20bd 087a 8e3d

convs.0.node_mlp_1.0.bias f4 [64]
-0.037270065 -0.06705514 0.11248055 0.039848413 -0.04952182 -0.03602779 -0.022432862 -0.0052992166
0.0030342408 -0.024619449 -0.05334891 -0.04576128 0.0499628 0.07645583 0.10618383 0.028178887
-0.068500526 -0.10438513 -0.08810366 0.075026646 0.056854 0.02405556 0.06380814 0.09791068
-0.00032168184 0.100303866 -0.09634496 0.104277804 0.0050828326 0.011824484 -0.035245676 -0.033686534
-0.06673824 0.07154291 -0.04374883 -0.06994378 -0.08405789 -0.07450619 -0.07314745 0.07577753
-0.08812479 -0.09477035 -0.025524745 -0.036894895 0.050073575 -0.010020326 -0.06875961 -0.034648377
0.07329572 0.032788694 -0.08028368 0.033227395 0.007253545 -0.017954838 -0.07983804 0.07185557
-0.0010876153 0.024744675 0.08441864 -0.012914239 -0.099928804 0.11674579 0.11338211 -0.0757786
00000000: 7fa8 18bd 3554 89bd 345c e63d 1738 233d
00000010: 64d7 4abd e091 13bd 1fc5 b7bc 0da5 adbb
00000020: 1dda 463b baae c9bc 6384 5abd 2e70 3bbd
00000030: cba5 4c3d e094 9c3d e876 d93d 69d7 e63c
00000040: 014a 8cbd dfc7 d5bd b16f b4bd 92a7 993d
00000050: bddf 683d 2a10 c53c d8ad 823d 6585 c83d
00000060: 68a7 a8b9 1d6c cd3d 8250 c5bd 9a8f d53d
00000070: e48d a63b 7bbb 413c c55d 10bd e4fa 09bd
00000080: 0fae 88bd 1785 923d f931 33bd af3e 8fbd
00000090: 8b26 acbd b496 98bd 55ce 95bd 4031 9b3d
000000a0: c57a b4bd f516 c2bd 4519 d1bc 1a1f 17bd
000000b0: f319 4d3d 4b2c 24bc d7d1 8cbd 75eb 0dbd
000000c0: 111c 963d 704d 063d c56b a4bd 7319 083d
000000d0: 25af ed3b 0616 93bc 2082 a3bd 0329 933d
000000e0: 508e 8eba 58b5 ca3c aee3 ac3d 3f96 53bc
000000f0: 79a7 ccbd 6b18 ef3d e134 e83d d031 9bbd

convs.0.node_mlp_2.0.weight f4 [64, 128]
-0.018429581 -0.030344296 -0.073122896 -0.059898928 0.077769786 -0.07292192 0.06640633 -0.06358069
0.0037656212 0.08213957 -0.08240162 -0.08204927 0.016321493 -0.008968844 0.04939318 0.040432878
0.011821384 -0.02868475 0.05172817 0.0072020227 -0.009138871 -0.029914107 0.013483428 -0.056593403
-0.032979026 -0.028603533 -0.067415565 -0.07016156 0.055689607 0.015957018 0.01520146 -0.06024256
0.032892287 -0.029991502 0.0227748 -4.0711664e-05 -0.071171224 -0.032947227 0.03109277 -0.03901262
-0.07116817 -0.032288127 0.07757042 0.029070245 -0.049442463 0.00591991 -0.075726666 0.05372528
0.018129786 -0.034525804 0.043775883 -0.026158113 -0.05822338 -0.05701057 -0.0651747 -0.019289639
0.013310935 0.012838503 0.0071232673 0.017115902 -0.047821954 0.022166463 -0.0006445338 0.075450025
-0.0117671555 -0.05796031 -0.010130175 0.052185923 0.046541907 -0.053571954 0.086804315 0.05649501
-0.057302628 0.005094047 0.005353552 0.083662316 0.020866206 -0.07211747 0.011203963 -0.06782847
0.06131127 0.022522872 -0.030811679 0.030122511 -0.03974038 -0.037531096 0.0010005973 0.08049138
-0.06733269 -0.061439406 -0.006013531 -0.004846767 0.040907305 0.068486705 0.04786911 0.08370429
0.050783776 0.06602428 0.084958 0.06577473 0.009150357 -0.01708156 -0.07060969 0.06721413
-0.07277174 -0.030807784 -0.050082415 -0.0668486 -0.08652142 0.056933876 -0.087164104 -0.09656938
-0.03344023 -0.012066272 0.0009208905 -0.06759062 0.08368047 0.07867328 0.022765998 -0.027128398
0.0700144 0.043618925 0.025184406 0.07337521 -0.04699251 -0.031071216 0.012748186 -0.0058717025
-0.014614108 4.5919835e-05 -0.010924626 0.07826326 0.035006538 0.0016724796 -0.024221841 0.0018529417
-0.016543768 0.028809631 -0.08707504 -0.03741023 -0.0020050728 -0.055600923 0.079831235 0.09045161
-0.07251739 0.07613397 0.026002003 -0.014585514 0.08472646 0.08395903 -0.0322655 -0.047230277
0.07724101 0.09007017 -0.0919423 -0.0576582 -0.025190674 -0.031042261 0.06430995 -0.032428563
0.07231453 -0.020852955 -0.079125494 -0.017523637 -0.024012232 -0.082533255 0.041904144 -0.010299634
0.012738411 -0.053808827 -0.060804717 0.064035065 -0.047080223 0.0767452 -0.026421059 0.01413521
-0.05730863 -0.04217672 0.022511221 -0.015759246 -0.037609626 0.04691031 0.032838836 0.013590088
-0.06481084 0.06463333 -0.027357873 -0.05735219 0.04496672 0.09157645 0.003689175 0.07319698
0.028839948 -0.034934852 0.051280152 -0.05296751 -0.05047756 -0.04906893 -0.03521958 -0.052281957
-0.06214516 0.07573268 0.011921043 -0.090784855 0.050480474 0.070407264 -0.012326858 0.047027107
-0.006999171 -0.046742745 -0.012806124 -0.023299359 0.03719516 -0.062420815 0.056040693 0.03867028
-0.050312404 0.05861396 0.025731184 -0.06100328 -0.07111389 -0.039232474 -0.07817317 -0.016884811
-0.065392435 -0.06997514 -0.017142335 -0.051505525 0.07459516 0.06879303 -0.013242244 0.061200295
-0.019128544 0.088648036 -0.079723135 0.04794819 0.0721078 0.002486751 0.06949025 0.039233685
-0.009522841 -0.0528261 -0.09254894 0.07225021 -0.08859364 0.07415887 -0.015259128 0.07552406
0.032825723 0.036276743 0.089599125 -0.0027224282 -0.07463592 -0.022632068 0.040757455 -0.0143875545
00000000: a2f9 96bc 9a94 f8bc 75c1 95bd 9458 75bd
00000010: c445 9f3d 1658 95bd 0b00 883d 9836 82bd
00000020: a4c8 763b ca38 a83d 2ec2 a8bd 7309 a8bd
00000030: a7b4 853c 0ff2 12bc 8150 4a3d f29c 253d
00000040: 7aae 413c 48fc eabc ebe0 533d f2fe eb3b
00000050: 34bb 15bc 6e0e f5bc 99e9 5c3c 7cce 67bd
00000060: 0415 07bd f551 eabc 2c11 8abd ddb0 8fbd
00000070: c91a 643d 4bb8 823c 8b0f 793c e7c0 76bd
00000080: 10ba 063d bdb0 f5bc 3892 ba3c d1c1 2ab8
00000090: 38c2 91bd acf3 06bd 44b6 fe3c b2cb 1fbd
000000a0: 9ec0 91bd 8e40 04bd 3edd 9e3d b924 ee3c
000000b0: 2e84 4abd cefb c13b 9516 9bbd 0a0f 5c3d
000000c0: eb84 943c ee6a 0dbd 574e 333d 8a49 d6bc
000000d0: a47b 6ebd ea83 69bd 507a 85bd 4e05 9ebc
000000e0: 1c16 5a3c 9658 523c 4c6a e93b a636 8c3c
000000f0: f4e0 43bd 7196 b53c eef5 28ba 8b85 9a3d
00000100: 07cb 40bc ca67 6dbd 09f9 25bc e8c0 553d
00000110: baa2 3e3d 446e 5bbd 76c6 b13d 5067 673d
00000120: 29b6 6abd f7eb a63b d96c af3b 2657 ab3d
00000130: 9bef aa3c 53b2 93bd d490 373c a7e9 8abd
00000140: 8721 7b3d e381 b83c c668 fcbc 7cc3 f63c
00000150: cfc6 22bd 35ba 19bd 7926 833a aad8 a43d
00000160: b9e5 89bd e3a7 7bbd 270d c5bb a1d1 9ebb
00000170: 6b8e 273d c242 8c3d 6612 443d 286d ab3d
00000180: a602 503d bd37 873d 76fe ad3d e7b4 863d
00000190: 61eb 153c a1ee 8bbc d09b 90bd 90a7 893d
000001a0: 5a09 95bd 9b60 fcbc 3823 4dbd ebe7 88bd
000001b0: 2432 b1bd 7f33 693d 1883 b2bd 2bc6 c5bd
000001c0: 9ff8 08bd 9db1 45bc ea67 713a f36c 8abd
000001d0: ab60 ab3d 751f a13d c27f ba3c 603c debc
000001e0: b663 8f3d c2a9 323d 874f ce3c be45 963d
000001f0: 387b 40bd 1089 febc c4dd 503c 6967 c0bb
00000200: 0370 6fbc 0c9a 4038 34fd 32bc 7d48 a03d
00000210: 0463 0f3d 1a37 db3a e26c c6bc 68de f23a
00000220: cc86 87bc 2d02 ec3c 6654 b2bd 783b 19bd
00000230: 8a67 03bb cbbd 63bd 8f7e a33d b23e b93d
00000240: ff83 94bd 20ec 9b3d 2702 d53c 14f8 6ebc
00000250: 1185 ad3d b6f2 ab3d d428 04bd 8974 41bd
00000260: 8930 9e3d b676 b83d 3f4c bcbd 012b 6cbd
00000270: ac5c cebc 574c febc efb4 833d d0d3 04bd
00000280: a419 943d d1d3 aabc 8c0c a2bd bb8d 8fbc
00000290: 4db5 c4bc 3207 a9bd aea3 2b3d ccbf 28bc
000002a0: c5b4 503c a566 5cbd 5e0e 79bd d124 833d
000002b0: 31d7 40bd 962c 9d3d fa70 d8bc 5e97 673c
000002c0: 74bc 6abd 7fc1 2cbd 7469 b83c 8919 81bc
000002d0: 8d0c 1abd 0625 403d 0482 063d f6a8 5e3c
000002e0: 8cbb 84bd 7b5e 843d 9e1d e0bc 21ea 6abd
000002f0: 062f 383d 6f8c bb3d 16c6 713b 4ce8 953d
00000300: c141 ec3c d917 0fbd 230b 523d 76f4 58bd
00000310: 8fc1 4ebd 81fc 48bd 6842 10bd 9b25 56bd
00000320: ec8b 7ebd bc19 9b3d 7a50 433c 69ed b9bd
00000330: 9dc4 4e3d af31 903d 97f6 49bc 7f9f 403d
00000340: 4d59 e5bb 5275 3fbd c7d0 51bc 4cde bebc
00000350: f459 183d f8ac 7fbd ed8a 653d ba64 1e3d
00000360: 6114 4ebd 3115 703d 34ca d23c 93de 79bd
00000370: 29a4 91bd 3bb2 20bd 4119 a0bd 0452 8abc
00000380: 78ec 85bd 204f 8fbd 156e 8cbc 75f7 52bd
00000390: 59c5 983d 5ce3 8c3d fff5 58bc 29ad 7a3d
000003a0: 77b3 9cbc 1a8d b53d e245 a3bd 5265 443d
000003b0: 41ad 933d c2f8 223b e750 8e3d 80b3 203d
000003c0: b105 1cbc 2e60 58bd 4c8a bdbd ebf7 933d
000003d0: 9570 b5bd 9be0 973d 6c01 7abc 5cac 9a3d
000003e0: 4474 063d ec96 143d bf7f b73d c46a 32bb
000003f0: b8da 98bd e366 b9bc 4af1 263d c7b9 6bbc

convs.0.node_mlp_2.0.bias f4 [64]
0.05498184 -0.0656725 0.01956912 0.0024091187 0.059923757 0.008138011 0.065756395 -0.055918988
0.001404867 0.01668428 -0.056977004 -0.06909686 0.036036868 0.0631559 0.0045870175 -0.026641272
0.055157494 0.010090255 0.063206315 0.0714395 0.039383877 0.011050337 -0.06944379 -0.064023055
0.07341691 -0.033163596 0.03658916 0.016075904 -0.08035841 -0.0151369255 0.035293214 0.08338235
0.019714447 -0.052603796 -0.01403661 0.03719119 0.075883895 -0.05085948 0.0004314451 0.029157914
0.054044038 0.045676447 0.031208467 -0.011572996 0.005149354 0.034298092 0.058467556 -0.042313334
-0.044768598 -0.004215078 -0.07443375 -0.06286252 0.075494505 0.06264669 -0.049041443 0.021497922
0.0032706317 0.048486803 -0.015071448 0.009482297 0.08200316 0.08354971 0.03867958 -0.07548101
00000000: a334 613d 4e7f 86bd 6b4f a03c 4ee2 1d3b
00000010: 9d72 753d 4b55 053c 4aab 863d 4f0b 65bd
00000020: 8423 b83a 79ad 883c b860 69bd a882 8dbd
00000030: 659b 133d e157 813d b14e 963b cc3e dabc
00000040: d3ec 613d 9951 253c 5072 813d df4e 923d
00000050: fd50 213d 790c 353c 8c38 8ebd 851e 83bd
00000060: 9b5b 963d 8dd6 07bd 84de 153d 9db1 833c
00000070: f392 a4bd de00 78bc 9e8f 103d 5ec4 aa3d
00000080: 3180 a13c 1477 57bd cff9 65bc ca55 183d
00000090: 0469 9b3d 0852 50bd 9533 e239 94dc ee3c
000000a0: 485d 5d3d 3a17 3b3d e6a8 ff3c aa9c 3dbc
000000b0: eabb a83b 287c 0c3d ad7b 6f3d bf50 2dbd
000000c0: 475f 37bd a31e 8abb b970 98bd 11be 80bd
000000d0: dd9c 9a3d e84c 803d aedf 48bd 691c b03c
000000e0: 1858 563b 199a 463d 3cee 76bc a35b 1b3c
000000f0: 46f1 a73d 1c1c ab3d 7b6e 1e3d ca95 9abd

convs.0.global_mlp.0.weight f4 [64, 128]
-0.06869618 -0.07024062 -0.04657993 0.018754732 -0.06529252 0.059162196 -0.013810631 -0.07404937
-0.06976936 0.06765111 -0.06405756 0.027421748 -0.03478326 -0.0072365487 -0.040611044 0.048002712
-0.05888901 -0.060391214 0.016207011 -0.061351016 0.06610569 -0.05938971 0.031602364 -0.034063485
0.06546788 -0.080935925 0.03058847 -0.062766604 -0.03151817 -0.0022446911 -0.016246608 0.0009438973
-0.040361293 0.08794937 0.0399209 0.031120908 -0.0329744 -0.033495147 -0.014434066 0.05616501
0.031045645 -0.060104944 -0.054398283 -0.093325324 0.03180709 0.015560766 0.014190232 0.0030554198
-0.015938547 0.04018889 0.029811647 0.050451223 -0.06289424 0.0020895486 0.0029247426 -0.04209557
0.0774757 -0.03987109 -0.08248483 0.071941115 0.018030327 0.0032321168 -0.058960658 -0.015487359
-0.047040798 0.054979946 0.093594275 -0.004074551 -0.017840527 0.05388053 0.07664416 0.07160254
-0.082638375 -0.08081304 0.030987728 -0.0066751847 -0.013414066 -0.08482477 -0.105798244 0.09746494
0.02515709 -0.09622307 0.01627467 -0.063833214 0.0802253 -0.009536912 0.032844923 0.03911027
-0.035058826 -0.06734587 0.011151957 -0.060090862 0.03739713 0.060523883 0.08097594 0.01833858
-0.086212926 -0.04493946 0.07946831 0.0474479 -0.007935587 -0.07673613 -0.011974668 0.03486812
0.06970235 0.025789542 0.046784423 -0.08142688 0.06611891 -0.049243476 -0.08934572 -0.054426603
0.04225629 0.03485037 -0.0055634514 0.004529027 -0.027260434 -0.03581371 0.0074319136 -0.0031996837
-0.014894823 0.020015 -0.08911379 0.0016414765 0.05108673 0.071327396 -0.03402677 -0.024797069
0.06731984 -0.031545725 0.030106694 -0.027478246 0.0012891705 -0.026032778 -0.063350566 0.08784288
0.0016173131 -0.05613525 0.018467214 -0.048265725 -0.07881223 0.07973008 -0.005474128 -0.06131124
-0.012697108 -0.08243946 0.027162561 0.07101568 -0.060362775 0.044910457 -0.055681918 0.075249396
-0.08159846 0.058071215 0.05041612 0.025228444 -0.058742475 -0.020306932 0.040060584 0.057327297
-0.07616683 -0.020067202 0.035078607 -0.056991495 -0.045983996 -0.061220273 -0.040317904 -0.029782021
-0.06267209 -0.048730742 -0.055731874 -0.081007734 -0.053931624 0.07758166 -0.00866358 0.081272736
-0.008982737 0.07188512 0.04886897 0.03548915 0.042537943 0.06832563 -0.085001215 -0.0902376
0.002423897 -0.044136323 -0.024167271 -0.011803343 -0.08535099 0.023815744 0.030812642 0.004251571
0.042489775 -0.056389887 -0.06395584 -0.0502986 0.08319638 -0.042852428 -0.061733875 0.03440532
-0.06522155 0.048750583 0.013867868 0.015409443 0.0007813431 0.037655603 -0.0014782462 -0.0612404
0.057142068 0.078011066 0.057472758 0.06448606 0.006750376 0.06350114 -0.063760005 0.010026155
-0.06387637 -0.036543217 0.0064188964 -0.01470366 -0.002008585 -0.030237377 -0.0118875485 -0.08276777
-0.07101254 0.016156115 0.037025332 0.025288874 -0.0025005923 -0.014557695 -0.028483303 0.06325677
0.03672103 -0.07216733 0.024688493 0.02316757 0.025879689 0.07167856 0.0013646331 -0.0326197
-0.020261008 0.06373157 0.087873474 -0.08091872 -0.013774228 0.005285169 0.05014015 -0.08541977
-0.007359618 -0.05279526 -0.05894712 -0.008249246 -0.069255106 -0.0075335493 -0.07612274 0.07485998
00000000: 95b0 8cbd 50da 8fbd 99ca 3ebd 86a3 993c
00000010: 16b8 85bd 0f54 723d fc45 62bc 32a7 97bd
00000020: 3de3 8ebd aa8c 8a3d 9c30 83bd 93a3 e03c
00000030: e478 0ebd 9220 edbb c457 26bd 7e9e 443d
00000040: 9a35 71bd c75c 77bd 91c4 843c 344b 7bbd
00000050: 6c62 873d a042 73bd 7b71 013d 2786 0bbd
00000060: 0614 863d bcc1 a5bd ac94 fa3c c78b 80bd
00000070: 3219 01bd ab1b 13bb 9b17 85bc e06f 773a
00000080: e251 25bd cd1e b43d 1984 233d 46f1 fe3c
00000090: 2a10 07bd 3532 09bd dc7c 6cbc 480d 663d
000000a0: 7053 fe3c 9a30 76bd bcd0 5ebd 5921 bfbd
000000b0: 2748 023d 95f2 7e3c 267e 683c 703d 483b
000000c0: 8e91 82bc 1b9d 243d 8e37 f43c f1a5 4e3d
000000d0: b2ce 80bd cff0 083b 0aad 3f3b 686c 2cbd
000000e0: 94ab 9e3d de4f 23bd ceed a8bd dd55 933d
000000f0: 56b4 933c ecd1 533b bb80 71bd b1be 7dbc
00000100: daad 40bd a732 613d 5bae bf3d d083 85bb
00000110: 4c26 92bc d5b1 5c3d 9df7 9c3d 5aa4 923d
00000120: 4f3e a9bd 4f81 a5bd fad9 fd3c 82bb dabb
00000130: acc6 5bbc 9cb8 adbd c0ac d8bd b39b c73d
00000140: 3e16 ce3c 9a10 c5bd 7552 853c fdba 82bd
00000150: 294d a43d b540 1cbc 6688 063d 1732 203d
00000160: d899 0fbd a2ec 89bd b3b6 363c d621 76bd
00000170: bc2d 193d e4e7 773d b7d6 a53d ca3a 963c
00000180: 6790 b0bd 7012 38bd 48c0 a23d bb58 423d
00000190: 4404 02bc d527 9dbd 6631 44bc e0d1 0e3d
000001a0: 1bc0 8e3d 9744 d33c 06a1 3f3d 23c3 a6bd
000001b0: 5a69 873d 87b3 49bd e4fa b6bd 6eee 5ebd
000001c0: ee14 2d3d 43bf 0e3d 9d4d b6bb 3b68 943b
000001d0: 4651 dfbc 66b1 12bd 6987 f33b c9b1 51bb
000001e0: 6a09 74bc 7ff6 a33c 4a81 b6bd d026 d73a
000001f0: 5240 513d 1914 923d a85f 0bbd 3923 cbbc
00000200: fcde 893d 1736 01bd 50a2 f63c 0f1a e1bc
00000210: 62f9 a83a b142 d5bc f1bd 81bd f8e6 b33d
00000220: 06fc d33a 13ee 65bd 8e48 973c 48b2 45bd
00000230: 4e68 a1bd 8649 a33d 5060 b3bb 7f21 7bbd
00000240: 8807 50bc 05d6 a8bd 0584 de3c ab70 913d
00000250: f53e 77bd 07f4 373d b912 64bd 5b1c 9a3d
00000260: 181d a7bd 15dc 6d3d 2281 4e3d e2ab ce3c
00000270: f39b 70bd b95a a6bc 9116 243d 07d0 6a3d
00000280: 5bfd 9bbd f963 a4bc 96ae 0f3d ea6f 69bd
00000290: b759 3cbd 1cc2 7abd 6324 25bd 6df9 f3bc
000002a0: 3a5a 80bd e399 47bd 1b47 64bd 62e7 a5bd
000002b0: 68e7 5cbd 22e3 9e3d b0f1 0dbc 5272 a63d
000002c0: 542c 13bc 8138 933d d42a 483d 125d 113d
000002d0: 443c 2e3d 4fee 8b3d 1e15 aebd 7ece b8bd
000002e0: 3eda 1e3b 4ac8 34bd 71fa c5bc cf62 41bc
000002f0: 80cc aebd 3c19 c33c cb6a fc3c c350 8b3b
00000300: c209 2e3d 15f9 66bd 48fb 82bd e805 4ebd
00000310: dd62 aa3d 0786 2fbd a9dc 7cbd 98ec 0c3d
00000320: e092 85bd b1ae 473d 0e36 633c e377 7c3c
00000330: 0cd3 4c3a c33c 1a3d b6c1 c1ba 37d7 7abd
00000340: cd0d 6a3d 44c4 9f3d 8e68 6b3d 4411 843d
00000350: 4232 dd3b e30c 823d 9b94 82bd be44 243c
00000360: 9dd1 82bd 57ae 15bd 9b55 d23b 9fe7 70bc
00000370: 77a2 03bb 60b4 f7bc fec3 42bc 2682 a9bd
00000380: 066f 91bd d459 843c e0a7 173d 9d2a cf3c
00000390: fae0 23bb 6683 6ebc d155 e9bc c48c 813d
000003a0: ca68 163d 77cc 93bd 863f ca3c eac9 bd3c
000003b0: a401 d43c 35cc 923d 7ddd b23a 3c9c 05bd
000003c0: 6afa a5bc b385 823d 02f7 b33d b7b8 a5bd
000003d0: 4dad 61bc 362f ad3b c25f 4d3d 8ff0 aebd
000003e0: f328 f1bb d83f 58bd 8972 71bd d827 07bc
000003f0: 9fd5 8dbd fedb f6bb 3de6 9bbd 3050 993d

convs.0.global_mlp.0.bias f4 [64]
0.07840124 0.04032555 -0.030614968 -0.051323045 -0.005162846 -0.04651613 0.061652586 -0.06512417
0.0007866578 0.012513777 0.05315306 -0.06498653 0.001015076 -0.03130709 -0.039746568 -0.0694832
-0.022579774 -0.073753275 0.07674378 -0.08886147 0.077375434 0.016027126 0.04917979 -0.037775345
0.049934573 -0.038035497 -0.016510246 0.023934156 -0.08761914 -0.066793725 0.026688643 -0.015301803
0.004612486 0.05991706 -0.0008473167 -0.064826146 0.010367758 0.05053861 0.053657807 0.042554747
-0.0606219 -0.028391846 0.047947567 0.020658195 0.015991125 -0.046567027 -0.07787079 -0.048491865
0.03402486 0.029219938 0.0023574198 0.036882803 0.005999725 0.02764662 -0.053524848 0.059621237
-0.06651984 0.026333906 0.02440947 0.033938453 0.004886834 -0.04359292 0.014080071 -0.04843817
00000000: d490 a03d 672c 253d 3ecc fabc 1d38 52bd
00000010: 172d a9bb b387 3ebd 6c87 7c3d d25f 85bd
00000020: b637 4e3a 9606 4d3c 06b7 593d a817 85bd
00000030: 4c0c 853a dd3b 00bd 4ccd 22bd 354d 8ebd
00000040: 38f9 b8bc f50b 97bd d82b 9d3d 01fd b5bd
00000050: 0377 9e3d 524b 833c bf70 493d 52ba 1abd
00000060: 3288 4c3d 1ccb 1bbd 7f40 87bc 9011 c43c
00000070: aa71 b3bd 26cb 88bd 24a2 da3c 6ab4 7abc
00000080: 5624 973b 976b 753d 761e 5eba 92c3 84bd
00000090: 87dd 293c 9301 4f3d 4ac8 5b3d e34d 2e3d
000000a0: ab4e 78bd 0496 e8bc ab64 443d 603b a93c
000000b0: d2ff 823c 11bd 3ebd b97a 9fbd 689f 46bd
000000c0: a75d 0b3d a75e ef3c f17e 1a3b 6c12 173d
000000d0: 5799 c43b 2a7b e23c df3c 5bbd 6635 743d
000000e0: 8e3b 88bd 34ba d73c 5ef6 c73c 0c03 0b3d
000000f0: bc21 a03b 7d8e 32bd 19b0 663c 1a67 46bd
